Hey_Morpheus.tflite (tflite, 206748 bytes, 9 tensors)

Const_1 f4 [32]
00000000: e8a9 1cbb 71cf febb dca2 2cbc a4df 243c
00000010: 2240 163c 78fb 45bb 22d6 f539 e106 e43b
00000020: 5f38 12bb a758 5cbc 7d4d 733c fd49 863c
00000030: 3a34 e6bb 8784 913c 1f28 b63c 42b3 29bc
00000040: 069e af3c 66e1 ae3b 0931 99ba bcf8 13bc
00000050: 3d1f 273b 3dda b0bc 5bdc 4d3c 05a4 88bc
00000060: 1be8 40bc 8ef4 61bb 3c2c 0cbc 3db2 63ba
00000070: 7490 03bb 9df7 8b3c 5fcb 8a3b d5da 8a3c
-0.0023904983 -0.007776194 -0.010536876 0.010063086 0.009170564 -0.0030209702 0.00046889583 0.006958828
-0.0022311432 -0.013448871 0.014850018 0.016392702 -0.007025269 0.01776339 0.022235928 -0.01035768
0.021437656 0.005336928 -0.0011687587 -0.009031471 0.0025500797 -0.02158844 0.012564744 -0.016679773
-0.011774088 -0.0034478041 -0.008555468 -0.00086859224 -0.0020075114 0.017085845 0.0042356695 0.01695005

Const_2 f4 [32]
00000000: a428 7c3f 1530 7a3f caa7 803f 1a68 7c3f
00000010: 276f 7f3f f86d 733f eba4 7b3f b33b 813f
00000020: 696e 813f e829 793f 658e 7d3f a16f 7e3f
00000030: 05e3 763f 56a7 7e3f d6f3 7c3f a2f6 7e3f
00000040: f364 803f adb8 7c3f ffcd 7e3f a033 793f
00000050: 3bff 7e3f 0110 8c3f c8ff 753f 71f7 7b3f
00000060: b322 8c3f 6f31 803f 484c 7e3f 0f7e 843f
00000070: a978 793f 7912 813f ee38 783f 7712 7f3f
0.9849951 0.9772962 1.0051205 0.98596346 0.9977898 0.95089674 0.9829852 1.0096344
1.011182 0.9732957 0.990454 0.9938908 0.96440154 0.99474084 0.98809564 0.9959508
1.0030807 0.9871929 0.99533075 0.973444 0.996082 1.0942384 0.96093416 0.9842444
1.0948089 1.0015086 0.99335146 1.035097 0.9744974 1.0083762 0.9696187 0.9963755

Const_3 f4 [32]
00000000: a082 1ebc c12b dd3a 1657 22bc c14a 24bc
00000010: 7342 27bc 059e 5abb 50c9 0fbc f63f 02bc
00000020: cae2 36bc c61c 61bc 0621 f03b 6299 2bbc
00000030: f51a 313c 389d fcb9 898a ccbc 2cd2 f13a
00000040: 36f7 f13b d5c2 43bc 5a17 6abc 2fff 7c3b
00000050: 9f12 63bc 0a3d abbb e675 303c 60e4 1fbc
00000060: 2311 cc3b 0acb adbb 8b4b 68bc 3b12 7cbc
00000070: 5fd8 943a 8b73 553c 61a4 5b3c 2509 01bc
-0.009674698 0.0016874002 -0.009908458 -0.010027588 -0.010208714 -0.0033358347 -0.008776024 -0.00794982
-0.011162469 -0.01373977 0.0073281555 -0.010473581 0.01080965 -0.00048182323 -0.024968402 0.0018449477
0.007384206 -0.011948307 -0.014287794 0.003860425 -0.01385942 -0.0052257823 0.010770297 -0.009759039
0.006227629 -0.005303745 -0.014178167 -0.015385206 0.0011355988 0.013028036 0.01340589 -0.007875715

Const_5 f4 [32]
00000000: b0a5 603d 2689 a5bd d250 3d3c 51a2 be3d
00000010: 9847 803d 24eb fa3b d84c 503c 69c1 953d
00000020: 9631 dd3d 7b28 1bbe a7b2 08be a245 213e
00000030: 32cf 323e ed3c 35be f980 98bd 48ad 233e
00000040: 0e7f 183e cfa8 303e e8b7 a73d cfb0 a3bd
00000050: fde0 b73d 8a68 81bd dc6e e53d eb3b 54be
00000060: c319 373a d475 ea3d 61f1 233e 3591 fcbb
00000070: 88ef 173e bcc0 d73d 8149 cd3c 7b3e 31be
0.054845512 -0.080827996 0.011554914 0.09308303 0.062636554 0.0076574255 0.0127136335 0.07312281
0.108004734 -0.15152161 -0.133494 0.15749219 0.17461851 -0.17699023 -0.074464746 0.1598407
0.14892218 0.17251895 0.08189374 -0.07992708 0.0897846 -0.06318767 0.112027854 -0.20725982
0.0006984735 0.11448255 0.16010047 -0.0077077397 0.14837468 0.10534808 0.025059463 -0.1730899

Const_6 f4 [32]
00000000: 484b 663f efe7 733f e816 9b3f df16 813f
00000010: 5d09 793f 5175 a03f 11ae 813f a6e4 8c3f
00000020: 7406 833f e463 823f fc85 883f 1a63 a13f
00000030: 3bf5 a43f c18b 8d3f dd3f 973f a4e8 b83f
00000040: af80 803f 08b4 9a3f 799e 9c3f 1996 a83f
00000050: 0699 7e3f f551 9e3f 6dab 803f e67e 883f
00000060: 083e 923f 88d2 833f 4727 943f 65ba 853f
00000070: 0224 ab3f 370a 7e3f c163 813f 33a4 863f
0.8995862 0.9527578 1.2116365 1.0085105 0.9727991 1.2535802 1.0131246 1.1007278
1.0236344 1.0186734 1.0665889 1.2608368 1.2887338 1.1058275 1.1816365 1.4445996
1.0039271 1.2086191 1.2235862 1.3170806 0.99452245 1.2368761 1.0052315 1.0663726
1.142518 1.0298624 1.1574486 1.0447508 1.3370364 0.99234337 1.0108567 1.051886

Const_7 f4 [32]
00000000: ff96 b3bd f44b dcbc 79e2 653e d57d d93b
00000010: d768 16bd cd08 793e e9a4 893c 3ba0 943d
00000020: f997 a43c 6d2f f93b 1039 043d b027 843e
00000030: 8e73 833e 3d8e 7f3d 98af da3d f6cb a83e
00000040: 8159 093c 79ca 663e 5648 6d3e 1c53 8e3e
00000050: d629 10bc 7fdb 763e 123b 14bc 456d 093d
00000060: 390e 953d 02b9 a33a 5451 003e 98b0 ee3c
00000070: 58d4 923e 8b3a 35bc fc3c 813c ac89 e03c
-0.087690346 -0.026891686 0.22449674 0.006637315 -0.036721077 0.24319763 0.016802268 0.07257124
0.020091997 0.0076045305 0.03228098 0.2581153 0.256741 0.06239151 0.10678023 0.3296811
0.008383156 0.22538175 0.23172125 0.27797782 -0.008799037 0.24107169 -0.009047287 0.033551473
0.072781034 0.001249105 0.12531024 0.02913694 0.2867763 -0.011061321 0.01577615 0.027409397

MatMul f4 [32, 1536]
00000000: c110 cc3c caeb f93b 03af 923c 80fb ac3a
00000010: f0e9 8dbb d64c b4bb 9378 e2bb 679f 24bd
00000020: fcf8 d7bc 2798 313c 8277 0fbc b09c cb3b
00000030: 8d3c 7abb b806 58bc fbe9 563c 5104 98bc
00000040: 4ccf 2bbc 9924 803c 4e30 05bc cd85 b5bb
00000050: b75c ec3b 2c82 6e3c 5d8d 7e3c 6831 9b3c
00000060: cfd1 ae3c 705a b83c beb5 b13c 271f 8d3b
00000070: 735d 89bc 50dd 07bd 1478 383c 550f ca3c
00000080: e91d a63c d3bd 9eba 9a4d 033c 44c4 613c
00000090: 777f 113c 05c2 60bc b8e5 89ba 53bc 23bb
000000a0: db54 743c b6c9 5fbc e3cd 823c 184c ad3c
000000b0: 7ca8 81bc 1092 d83c 6876 1d3c ff02 acbc
000000c0: 61ca cebc 032a 173c ac88 a3bc daf8 723b
000000d0: 1681 b7bb a556 083d 42d5 96bc 339f d43c
000000e0: e2bc 33bb a392 afbc dd3b 583c f8d0 95bc
000000f0: 4285 af3c 0a1c 01ba 61b5 8f3c 4b67 0dbc
00000100: c44b 7bbc 9725 9e3c 64e5 0e3c d936 53bc
00000110: aba1 01bd 7122 413c 7243 953b 0ee0 d13c
00000120: e4a4 d8ba b815 ce3c d402 093c c70e cb3c
00000130: 37b5 14bb c0bd a53b a29c 783c d084 203c
00000140: 4b5f 8f3c 4ecc 833c ef4a 2ebc b2ae 883c
00000150: 3cf2 c3bb 4f1a 3fba a871 4dbc 88fb e8bc
00000160: c5d7 27bc 5071 58bc 13de 8e3c 574c 11bb
00000170: 7e5f 933c e392 38bc d2d5 ab3c 9130 c6bc
00000180: c6f9 8c3c 8c25 e238 d393 9bbc 3410 ebbc
00000190: 3d67 dc3b 238e 143c 977b e23c 0ef5 b83b
000001a0: 7a7e c33b 3693 843c 88a4 18bb 31a4 a93c
000001b0: f76d 183c eaf5 833c 342a 8c3b 1202 cbbc
000001c0: 9026 d8bb 55bc 63bc 9a72 5dbc f22d a7bc
000001d0: 7fcb 273c 2975 a73c 5acd 9dbc d918 6a3c
000001e0: 13e0 8d3c 1193 2c3c 5d46 513c 9092 803b
000001f0: b7bc ccbc fe38 edbb c0a8 0dbc a15a bc3c
00000200: 8706 0f3c 24e9 1dbd a156 9e3a a04c ea3c
00000210: 2b96 dd3b a136 0ebc 5a6f 8bbb 169d 42bb
00000220: 2776 8f3c 4f66 0bbc f0e1 4b3b ef82 473c
00000230: a8d6 3dbc b453 ae3b eff1 4dba 6083 933b
00000240: aedd 3b3c 9135 1e3b 7fa3 27bc adcd 173c
00000250: b8a5 373c 9341 b9bb 4e82 9f3c 213e 36bc
00000260: 493e ebbb f740 ad3c 8dc5 76bc 8cac 24bc
00000270: e645 cdbb 1792 81bc 5581 02b9 6019 643c
00000280: a9f4 7c3c b4f6 67bc 5219 a6bb b869 efbb
00000290: b16e da3b 5b6a 35bb 3a34 233a 87aa aabc
000002a0: 296c 353c 2085 19bc fbf3 9b3c 2334 5a3c
000002b0: 012b 293d 3c7c ed3c 3419 8e3c c58e fb3b
000002c0: 5e5d 993c ebe3 263c 2779 d13c 0ab3 20bb
000002d0: c2cb fe3c 6c59 cfbc 46f7 da3c 1ae6 8f3b
000002e0: 55f6 373a 82af a6bb 3d78 1d3d da0e e53c
000002f0: d639 d8bc 5e54 85bc 39c6 533c 100e b23c
00000300: 78f4 d6bc b050 a03c e14b 8ebc edec fc39
00000310: 57f7 20bc 1774 1dbb 981c c43c 7458 5b3b
00000320: 73ed 673c 0d24 9bbc 3920 86bc c4c9 aabc
00000330: 5efa a23b 618f e2bb ae95 b83b 23cd 38bc
00000340: b6fb 493a c8e6 dbbc d92f 913c 294d 3cbc
00000350: 2dc8 3cbc d84b 8abc e0cf 803c 6a4f b3ba
00000360: ed50 8dbc e073 1b3c 639c 6b3c 29ff 13bd
00000370: ffef a0bc 2fad 593c 6bb3 d83b f8bc 6839
00000380: 336a 913c caac c7bc 6238 913a d39e be3c
00000390: 8a3a 64bb c872 7dbc 104d b2bc ed6f 643c
000003a0: 9846 813c d217 8b39 7d1e 623c 427a 7a3b
000003b0: 918a ccbc f7dd a1bb b41b bf3c 65bf 383c
000003c0: 3a94 9d3c 388e c23c 61d3 003c 7396 fd3b
000003d0: aea3 b4bc 6146 71bb 05de 07bc e073 1e3c
000003e0: 410e 323b 9135 8d3a 5035 f0b9 d43a 0fba
000003f0: b2d0 c4bc af52 c1bb 5838 acbb b442 ac3c
0.024910333 0.007626985 0.017905718 0.0013197511 -0.004330866 -0.0055023236 -0.006911346 -0.04019108
-0.026363842 0.010839499 -0.00875652 0.006213747 -0.0038183064 -0.013185196 0.013117309 -0.018556746
-0.010486435 0.015642451 -0.0081291925 -0.005539632 0.007213201 0.014557403 0.015536633 0.018944457
0.021340279 0.022504061 0.021693107 0.004306692 -0.016768193 -0.033170044 0.011259098 0.024665514
0.020277934 -0.0012111015 0.008014107 0.0137797035 0.008880488 -0.013718133 -0.0010520732 -0.0024984076
0.014912809 -0.0136589315 0.015967315 0.021154448 -0.01582741 0.026436836 0.00961075 -0.020997522
-0.025242986 0.009226325 -0.019962631 0.0037074597 -0.005600105 0.033285756 -0.018412236 0.025954818
-0.0027425815 -0.021432227 0.013197866 -0.01828812 0.021425847 -0.00049251376 0.017542543 -0.008630584
-0.015337888 0.019305034 0.008721683 -0.012891495 -0.03164832 0.011787997 0.0045551592 0.025619533
-0.0016528633 0.02515684 0.008362491 0.02478732 -0.002269102 0.0050580204 0.015174063 0.00979729
0.017501494 0.016088631 -0.010637983 0.016684864 -0.0059798043 -0.0007289992 -0.012539305 -0.028440252
-0.010244315 -0.01321061 0.017439878 -0.0022170746 0.01798987 -0.011265489 0.02097598 -0.02419308
0.017208945 0.000107835134 -0.018991387 -0.02869425 0.006726174 0.009067091 0.027646823 0.005644447
0.005966005 0.016183477 -0.0023291428 0.020708175 0.009303561 0.016108472 0.004277492 -0.02478126
-0.006596394 -0.013899882 -0.013516093 -0.02040765 0.010241388 0.020441609 -0.019262958 0.014288151
0.017318761 0.01053311 0.012773124 0.0039237216 -0.02499233 -0.00723946 -0.00864619 0.022992434
0.008729584 -0.03855242 0.0012080261 0.02860099 0.006762286 -0.008680017 -0.0042552175 -0.0029695681
0.017512394 -0.008508279 0.003111001 0.012177213 -0.011586823 0.005320037 -0.00078561803 0.004501745
0.011466427 0.0024140815 -0.010231852 0.0092653455 0.011208944 -0.005653569 0.019471314 -0.011123211
-0.007179056 0.021149142 -0.015061748 -0.010050904 -0.006264436 -0.015816731 -0.00012445946 0.0139220655
0.015439191 -0.01415794 -0.0050689364 -0.007306304 0.0066660275 -0.00276818 0.0006225739 -0.020833267
0.011073151 -0.009370118 0.019037237 0.013318094 0.041300777 0.028989904 0.017346002 0.0076769316
0.018721279 0.010186176 0.025570465 -0.0024520778 0.031103019 -0.025311194 0.026729237 0.004391444
0.00070176023 -0.00508684 0.038444746 0.027961183 -0.026394766 -0.016275581 0.012925678 0.021735221
-0.026239619 0.019569725 -0.017370166 0.0004824171 -0.009824595 -0.0024025494 0.023939416 0.003346947
0.014155733 -0.018938089 -0.016372787 -0.020848162 0.0049736938 -0.0069140648 0.0056330776 -0.011279377
0.00077050494 -0.026843444 0.01772301 -0.011493006 -0.011522335 -0.016881868 0.015724123 -0.0013680283
-0.017250502 0.009488076 0.014380547 -0.03613201 -0.019645689 0.013285919 0.006613185 0.0002219564
0.017750835 -0.024374384 0.0011079425 0.023269093 -0.003482493 -0.0154692605 -0.021765262 0.013942701
0.015780732 0.00026529894 0.013801214 0.0038219844 -0.024968417 -0.0049397903 0.02332864 0.011276101
0.019235719 0.023749456 0.007862897 0.007738882 -0.022050705 -0.003681563 -0.00829268 0.009671181
0.002716914 0.001077341 -0.00045816088 -0.0005463783 -0.024025295 -0.005899749 -0.00525574 0.0210279

MatMul_1 f4 [32, 32]
00000000: 321c 223d 808d 0bbe afb0 063e 7906 88bd
00000010: c868 0fbe d739 b53d 6e97 d23d 3c82 783d
00000020: 9a36 343c 4847 15bd be88 223e ca4d 1bbe
00000030: da8f cb3d 2e88 e23b 149a 09bc dbec 0ebe
00000040: b8d3 ebbd 3992 af3d 1747 2ebd 1988 683d
00000050: 2b50 8abd 822a 003d 615a 08be be32 f53d
00000060: 0922 1b3d dc04 c0bd 8b78 1c3e 78c2 f1bd
00000070: ca50 89bd e283 f4bb e18f a9bb 05e6 773b
00000080: 52ba fdbd f02b 4e3e 4263 ca3d e75c a23d
00000090: dba6 cb3c a8bc 083e 92b1 d4bd 4733 08be
000000a0: b25a 26be 93a4 a83d 9aaa 4f3d 3a71 28be
000000b0: 2202 4cbd cb14 ef3d 4f04 ef3d c97d 15be
000000c0: b0ab 19be cd7f 11be 6efd e2bc 31ed fdbd
000000d0: 0a01 8bbc f60d ccbb 32c8 253e c788 d4bd
000000e0: 3def 553e 7dde d5bd 1e6a fabc 2535 6ebd
000000f0: b07c 1bbd 9513 b7bd 9d20 463d 4108 2dbd
00000100: 7aae d8bd 33c6 babc 3f2d be3c 9f00 3d3e
00000110: 85e4 a83a a115 0e3e ee28 2ebe 561e 39be
00000120: 0e05 f4bd 6740 103e b184 2c3d 7acf d63d
00000130: ec7b 303d d7d8 7dbd 9083 13be 10a9 763d
00000140: c18d 013d e57b bebc a00d 223d a68d 253e
00000150: 8459 d2bd f81e 56bc 6ab0 d8bd 542c dd3d
00000160: 6ec2 b03c f62a 41bd 362c 02be 9b5d ec3d
00000170: 2ed8 28bc d3ca cf3d 679e db3d 192d c03d
00000180: 7808 1b3e 0adc d4bc 4532 e7bd 7cdd 9c3b
00000190: 2873 9e3d 8d40 d23c bdf6 883d f6b2 bbbd
000001a0: 6e0b 603d bb1c bfbd 9665 18be ba4e 343d
000001b0: 0dd6 2dbd 37fd f6bc 5853 a3bd fa6c eb3c
000001c0: 9a63 ea3d 9494 cb3d d787 1cbe 79bb f7bd
000001d0: 067b 1d3e c4fc 5c3d 24db 15be baf3 2abe
000001e0: 89fd 7d3d eaa5 ac3c f4b9 cc3d 7bd7 cb3d
000001f0: 2eea e43d 59c2 2f3d 3548 733d a5a4 313d
00000200: 4587 413d b816 8a3d 6843 153d 608c 62bc
00000210: 3369 233d 0320 d8bd 5e7e ce3d fb91 7cbd
00000220: 016f 88bd a58f 963c 0410 1cbb 41f3 e5bd
00000230: 22e2 f9bc b863 66bd 79b7 463d 82fe 90bd
00000240: d907 493d 15e5 97bc 56a3 c83d 37a8 d73c
00000250: 585f 053e 3c70 1abd 004b 0cbe 2a08 2e3e
00000260: cb6c c43d 5592 50bd 3897 6ebd 45a9 5f3d
00000270: 2b72 ca3d c782 9fbd b870 9fbd c36f f6bd
00000280: d949 cd3c b20a 503d ca4d a0bd 9213 2fbd
00000290: 7f6c 393c 9978 233e e9b5 74bd 856a eebd
000002a0: 9ebd 35be e034 8ebd f6fe 213e 0469 b7bd
000002b0: a5da c13c 803c 2cbe 41d0 95bd f395 733d
000002c0: 44a3 323e 7317 163e 28eb 13be 09a2 b53d
000002d0: e5ae 1bbc b664 ae3d ff65 49bd b752 25bd
000002e0: acdb 273d dab8 fabd bbf0 2cbe 008f 7bbd
000002f0: 94e5 023e 82c7 0fbe 2b3d cebd e9d6 18be
00000300: 0ca7 313e 4f79 a0bd 0129 013e f94b 9fbd
00000310: ca36 b53d 3eed 10be a99a 5c3d cacf eabc
00000320: af73 ba3d 83d0 ab3d 9757 a2bd 4242 fabd
00000330: 66bf 08bc 0246 033b c7fe 12bd e71d fc3d
00000340: 0518 80bd 071d f33d 6361 123e de09 5f3d
00000350: ddf6 1abd aa48 50be f52a 97bd 8ca4 093e
00000360: 15c1 d83b e6d0 a3bc e424 4a3b 244b 33be
00000370: f030 e03d 2fc3 073d 8fdd fbbd c96c d3bc
00000380: bf09 0abe b47a 9a3c 257a 313e d759 8a3b
00000390: 0ff4 963d b89c 53bc d26e 0bbe e845 22bd
000003a0: 250d 0d3e c0ba a2bd 0c77 3ebd 7776 c8bd
000003b0: 68e3 8c3d 8673 23bb 0623 81bd a5da 8b3b
000003c0: a0be 19be 797c 1e3c 44bc 7c3d 1a86 cfbd
000003d0: 66c0 cabc ecdd 423e c0b0 00bc f618 23be
000003e0: dc31 573e 57cc 0dbe 596b 863d 387e e93d
000003f0: 2f2e 97bc 40c3 3dbc 1abe 363d 82fb be3c
0.03957767 -0.13628197 0.13153337 -0.066418596 -0.14004815 0.08848923 0.10282789 0.060671076
0.010999346 -0.036444932 0.15872476 -0.15166393 0.09939547 0.0069132065 -0.0083985515 -0.1395754
-0.115149915 0.08572812 -0.042548265 0.056770418 -0.06753572 0.03129054 -0.13315727 0.11972569
0.037874255 -0.09375927 0.15280358 -0.1180467 -0.067048624 -0.0074620107 -0.0051746224 0.0037826311
-0.123890534 0.20133948 0.09882213 0.07927876 0.024859836 0.13353217 -0.10385431 -0.13300811
-0.16245535 0.08234515 0.050699808 -0.16449443 -0.04980672 0.11673888 0.11670744 -0.14598764
-0.150069 -0.14208908 -0.027708735 -0.12398756 -0.016968269 -0.00622725 0.1618965 -0.10377651
0.20892043 -0.10442827 -0.030568179 -0.05815615 -0.03796071 -0.08939282 0.048370946 -0.0422442
-0.10580154 -0.022799587 0.023214934 0.18457268 0.0012885487 0.13875438 -0.17007801 -0.18077978
-0.119150266 0.14087068 0.042118732 0.10488792 0.04308693 -0.061974373 -0.14405656 0.060219824
0.031629328 -0.023252437 0.039563775 0.16167316 -0.1027098 -0.013068907 -0.10580523 0.107994705
0.021577086 -0.04716011 -0.12712178 0.11541291 -0.0103054475 0.101461075 0.10723572 0.09383602
0.1513995 -0.025983829 -0.11288885 0.004787145 0.07736808 0.025665546 0.066876866 -0.091649935
0.0546984 -0.09331652 -0.14882502 0.044020392 -0.042440463 -0.03015004 -0.07974881 0.028738488
0.11444779 0.099404484 -0.15286194 -0.120963044 0.15378961 0.053951994 -0.14634377 -0.16694537
0.062009368 0.021075208 0.09996405 0.09953209 0.11177479 0.042909954 0.059395034 0.043369908
0.047248144 0.067426145 0.036441237 -0.013827413 0.039895248 -0.10552981 0.100826964 -0.061662655
-0.06661797 0.018379042 -0.0023813257 -0.112280376 -0.030503336 -0.056247443 0.048514817 -0.070797935
0.04907975 -0.018541852 0.09796779 0.026325328 0.13024652 -0.03770469 -0.13700485 0.16995302
0.09591063 -0.050920803 -0.058249682 0.054604787 0.09885057 -0.07788616 -0.07785171 -0.120330356
0.025059627 0.05079145 -0.07827337 -0.042743273 0.011317371 0.15963973 -0.059743796 -0.11641411
-0.17748114 -0.06943679 0.15819916 -0.08955577 0.023663828 -0.16819954 -0.07315112 0.059469175
0.17445093 0.14657383 -0.14445174 0.088687964 -0.009502147 0.08515303 -0.049169537 -0.040362086
0.04098098 -0.12242289 -0.16888706 -0.061415672 0.1278289 -0.1404095 -0.100702606 -0.14925732
0.1734888 -0.07835638 0.12613298 -0.077781625 0.08848341 -0.14153 0.053858433 -0.028663535
0.09104096 0.0838938 -0.07926863 -0.12219669 -0.008346414 0.0020030742 -0.035887506 0.12310391
-0.06254581 0.11870771 0.14294963 0.05445277 -0.037833083 -0.20340219 -0.0738124 0.13441676
0.006614814 -0.019997071 0.0030844742 -0.17509133 0.10946834 0.033145126 -0.12298118 -0.025808709
-0.1348028 0.018857338 0.1733175 0.0042221355 0.07370769 -0.012915783 -0.13616493 -0.03961745
0.13774545 -0.07945776 -0.04650025 -0.097882204 0.06879312 -0.0024940684 -0.06305508 0.004268008
-0.15014124 0.009673231 0.06170298 -0.10133 -0.024749946 0.19029969 -0.0078546405 -0.1592749
0.21015114 -0.1384748 0.06563444 0.114010274 -0.01845464 -0.011582196 0.04461489 0.023313288

MatMul_2 f4 [1, 32]
00000000: 1620 423b dcbd 743d 8d3f b9be 1436 aa3c
00000010: 1f72 83bc d850 acbe f752 95bd 6215 0c3e
00000020: 89fe fc3c 04a7 803d 362b e43d afa0 8ebe
00000030: be50 acbe c2ae cb3d c288 3b3e 1283 bdbe
00000040: e929 05bd bc65 b1be b4d8 aabe f2c9 95be
00000050: 33a3 313d f614 a2be 25bb 283d ce40 3a3e
00000060: 304a a23d 80a4 4b3e 8d7b 923e 5d7b 8e3d
00000070: 8a16 91be 82ba 393d 4319 05bd 064b 473e
0.0029621175 0.059751377 -0.36181298 0.02077774 -0.016045628 -0.3365543 -0.07291215 0.13680032
0.03088309 0.06281856 0.11141054 -0.27856967 -0.3365535 0.09945442 0.18313888 -0.3701406
-0.03251067 -0.3464793 -0.33368456 -0.29255635 0.04336853 -0.31656617 0.0411941 0.18188784
0.079243064 0.1988697 0.28609887 0.069571234 -0.28337508 0.045343883 -0.032494795 0.19462213
